lalit_heading_model.pth (torch, 3376 bytes, 4 tensors)

net.0.weight f4 [32, 4]
0	0x3ce02ea0	0.027365983
1	0xbe41b770	-0.18917632
2	0x3ee9d814	0.45672667
3	0xbe3988cc	-0.1811859
4	0x3e933509	0.287514
5	0x3e25d6f5	0.16195281
6	0xbe10e181	-0.14148523
7	0xbe5f51ac	-0.21808499
8	0xbe98a5f8	-0.29814124
9	0xbededec4	-0.43529332
10	0x3de89268	0.1135605
11	0x3dfca548	0.123362124
12	0xbef443f8	-0.47708106
13	0x3e97bee8	0.29637837
14	0x3ee62532	0.44950253
15	0xbebe8370	-0.37209654
16	0x3d525ad9	0.05135617
17	0x3e1d60db	0.15368979
18	0x3e5715c2	0.21004394
19	0xbedf0dea	-0.43565303
20	0xbe66ba84	-0.22532088
21	0x3eba9581	0.36442187
22	0xbe3715f2	-0.17879465
23	0xbebf7c2c	-0.37399423
24	0x3dde2680	0.10847187
25	0xbec12762	-0.3772536
26	0xbe463004	-0.19354254
27	0x3ed20332	0.41018063
28	0x3e64cc35	0.22343524
29	0x3d29269f	0.041296598
30	0xbe9e6e14	-0.30943358
31	0xbd02fbc0	-0.03197837
32	0x3e31a832	0.17349318
33	0x3ef95b33	0.48702392
34	0x3eb3675e	0.350398
35	0x3e26ab04	0.16276175
36	0x3e8d3882	0.27582175
37	0xbe49e8cc	-0.19717711
38	0xbebd39ea	-0.36958247
39	0x3d83dab0	0.06438196
40	0xbe329ec6	-0.1744338
41	0x3cf272e2	0.029595796
42	0x3e627bc8	0.22117531
43	0x3e0aa524	0.13539559
44	0xbe84a03d	-0.25903502
45	0x3ee7fd21	0.4531031
46	0xbebea69a	-0.37236482
47	0xbea09300	-0.31362152
48	0x3e86013e	0.26172823
49	0x3cf50df6	0.029913884
50	0xbe3759af	-0.17905305
51	0x3e37214c	0.17883795
52	0x3ede08fe	0.43366235
53	0xbebb2b1e	-0.36556333
54	0xbe0f5f98	-0.1400131
55	0xbb9f5a80	-0.0048630834
56	0x3efea276	0.49733323
57	0xbe81dafa	-0.25362378
58	0x3e1b1bb0	0.1514728
59	0x3e45c610	0.19313836
60	0x3ebee7bc	0.37286174
61	0xbe935d24	-0.28781998
62	0x3e79ed64	0.24406964
63	0x3e47eadc	0.19523185
64	0xbea87bc4	-0.32906926
65	0xbe3e03d8	-0.18556154
66	0xbef020e4	-0.46900094
67	0x3e4769bc	0.19473928
68	0x3ecc86c9	0.39946583
69	0x3dc90b53	0.09816613
70	0x3b9de933	0.0048190593
71	0xbe4cea14	-0.20011169
72	0xbda25f60	-0.079283476
73	0xbe3e4249	-0.18579973
74	0x3ea2f279	0.31825617
75	0xbe07e634	-0.1327141
76	0xbef41b46	-0.47677058
77	0x3d4d1668	0.050070196
78	0x3ed78444	0.42093098
79	0xbee2a9b8	-0.4427011
80	0xbebb3ffe	-0.3657226
81	0xbe0e634c	-0.13905066
82	0xbd4cae60	-0.049970984
83	0xbd0ae7f0	-0.0339126
84	0x3e5b2c98	0.2140373
85	0x3ecca450	0.3996911
86	0x3e64e43d	0.22352691
87	0x3e52df48	0.20592988
88	0xbceedf9b	-0.029159358
89	0x3eda0440	0.42581367
90	0xbde96293	-0.11395755
91	0xbe802e3a	-0.25035268
92	0xbe6c1c4c	-0.2305767
93	0x3eb0e7e4	0.34551919
94	0x3d8f891e	0.07008575
95	0xbea255ae	-0.31705993
96	0xbe9caca1	-0.30600455
97	0x3eddc6de	0.43315786
98	0xbe1b94ee	-0.15193531
99	0xbef601d6	-0.48048276
100	0x3dee42f8	0.11633867
101	0x3e295d23	0.16539435
102	0x3e9151fd	0.28382865
103	0x3ebc8306	0.36818713
104	0xbe27fff3	-0.1640623
105	0x3c4d0c82	0.012515189
106	0x3ea9578f	0.33074614
107	0x3eff0948	0.4981177
108	0xbdaee6a4	-0.08540085
109	0x3e4e8fda	0.20172063
110	0x3e1c022b	0.15235202
111	0xbe4355b0	-0.19075656
112	0x3e0c8e63	0.13726191
113	0x3e9bc7bb	0.3042582
114	0xbed779c8	-0.420851
115	0xbd8c9098	-0.068635166
116	0x3e97b752	0.2963205
117	0xbd63e170	-0.055634916
118	0xbeb5159a	-0.35368043
119	0xbe5a8074	-0.21338063
120	0x3e0c4688	0.1369878
121	0xbeec7642	-0.46183974
122	0xbe47a5e4	-0.19496876
123	0xbeb87bac	-0.36031854
124	0xbcd42e00	-0.02590084
125	0xbe98d1f2	-0.29847676
126	0x3ebd484c	0.3696922
127	0xbdf74460	-0.12073588

net.0.bias f4 [32]
0	0xbe74f0f4	-0.23920041
1	0x3e614e0e	0.22002432
2	0x3efae0f0	0.4899974
3	0xbedb64d5	-0.42850366
4	0x3ee38909	0.44440487
5	0x3e248b53	0.16068773
6	0x3ea59772	0.32342106
7	0x3d93e33f	0.07221078
8	0x3e127085	0.14300735
9	0xbccdf140	-0.025139451
10	0x3ea7b43e	0.327547
11	0xbef515a5	-0.47868076
12	0xbe46e92f	-0.1942489
13	0xbed98112	-0.42481285
14	0xbeeaaa82	-0.45833212
15	0xbef5d14c	-0.48011243
16	0xbe5b3484	-0.21406752
17	0x3ea52107	0.3225176
18	0x3e82f368	0.2557633
19	0x3d4456fe	0.047934525
20	0x3d943168	0.07235986
21	0x3ead397b	0.33832917
22	0xbd1b08f2	-0.037850328
23	0x3dcf6edf	0.10128569
24	0x3eebd575	0.46061292
25	0x3ea78cd6	0.32724637
26	0x3d4eae80	0.050459385
27	0xbecade34	-0.39622653
28	0xbd8a63d2	-0.067573205
29	0x3ef27d8a	0.47361404
30	0x3d8453b0	0.064612746
31	0xbd723f00	-0.059142113

net.2.weight f4 [2, 32]
0	0xbe2f31ed	-0.17108889
1	0x3d619ac9	0.055079255
2	0xbdf83f6c	-0.12121472
3	0x3d7f4ba1	0.062327985
4	0x3b83d007	0.0040226015
5	0xbdfa13e2	-0.122108236
6	0x3de93dd2	0.113887444
7	0x3ca47e19	0.02007966
8	0xbde3e967	-0.11128502
9	0xbd4dd874	-0.050255254
10	0x3d9b7179	0.075900026
11	0x3d41fc94	0.047360018
12	0xbd97ba31	-0.0740856
13	0x3d9649c2	0.07338287
14	0x3d9d4c0e	0.07680522
15	0x3dddedbe	0.10836361
16	0x3d8873ce	0.06662713
17	0x3e04860d	0.12941761
18	0xbd2b9d5f	-0.041898128
19	0x3d64eb6d	0.055888582
20	0xbd84b659	-0.064800926
21	0x3d6eb613	0.05827911
22	0x3d8b9391	0.068152554
23	0xbdfc5884	-0.123215705
24	0x3da3d7fb	0.080001794
25	0x3d6985fd	0.057012547
26	0x3bdd8289	0.006759946
27	0x3cbed64b	0.023295542
28	0xbc9b2ed7	-0.018943233
29	0xbe043902	-0.12912372
30	0x3dfff83e	0.1249852
31	0xbd661ed0	-0.05618173
32	0x3ddb87f6	0.10719292
33	0xbd819767	-0.06327706
34	0x3e041eef	0.12902425
35	0xbda63f19	-0.08117504
36	0x3d223773	0.03960366
37	0x3d14ab67	0.036296275
38	0xbde81ded	-0.11333833
39	0x3d84f811	0.064926274
40	0x3ccc10d6	0.024910372
41	0x3df10e56	0.117703125
42	0xbd8b5f6c	-0.0680531
43	0xbe058a8c	-0.13041133
44	0xbd8a42fe	-0.06751059
45	0x3d8e6be4	0.06954172
46	0x3e053707	0.13009273
47	0xbe1622c1	-0.14661695
48	0xbda4436b	-0.080206715
49	0x3dd24d0a	0.102686
50	0xbdc9f1a2	-0.09860541
51	0xbb10752b	-0.0022042494
52	0x3d18d140	0.03730893
53	0xbdb520be	-0.08844136
54	0x3dc87dcc	0.09789619
55	0x3d443cb8	0.04790947
56	0x3e3d355b	0.18477385
57	0xbd2eece5	-0.04270639
58	0xbe24b364	-0.16084057
59	0xbe010869	-0.12600864
60	0xbd30754e	-0.04308062
61	0xbe249e29	-0.16075958
62	0x3df1e51e	0.11811279
63	0xbdb3cb23	-0.0877898

net.2.bias f4 [2]
0	0x3da14f38	0.07876438
1	0x3ce54a20	0.027989447
