lalit_heading_model.pth (torch, 3056 bytes, 3 tensors)

net.0.weight f4 [32, 4]
0	0x3ec40baa	0.3829015
1	0xbe9477fa	-0.28997785
2	0x3e3a58c8	0.1819793
3	0x3db07470	0.08615959
4	0x3d864ba8	0.06557399
5	0xbcc2a2e0	-0.023759305
6	0xbef64e06	-0.48106402
7	0xbec767c8	-0.38946366
8	0xbeeb4550	-0.4595132
9	0xbe70d9b4	-0.23520547
10	0xbe54e6d0	-0.20791173
11	0xbeb94202	-0.36183172
12	0x3ede04d4	0.4336306
13	0xbe328e3c	-0.1743707
14	0x3e7707e4	0.24124104
15	0xbef05904	-0.46942914
16	0xbefd520a	-0.49476653
17	0x3e8271fe	0.25477594
18	0xbeaed54a	-0.34147102
19	0xbec9c15a	-0.39405328
20	0xbe77138c	-0.2412855
21	0xbe3f5c88	-0.18687642
22	0xbe1763dc	-0.14784187
23	0x3e331918	0.17490041
24	0xbef8a24e	-0.4856133
25	0x3ee77870	0.45209074
26	0xbee57e10	-0.4482274
27	0x3eea6b70	0.45785093
28	0xbea357a8	-0.31902814
29	0xbe14c7ac	-0.14529294
30	0xbd9006f8	-0.07032579
31	0xbd8a2540	-0.06745386
32	0xbe276ce0	-0.16350126
33	0x3d8de8f8	0.06929201
34	0xbdb822e8	-0.08991033
35	0x3e5c9ed8	0.21544969
36	0x3d27a790	0.040931284
37	0x3e06199c	0.13095707
38	0x3eb6122a	0.35560733
39	0xbe9214a8	-0.28531384
40	0xbd443cc0	-0.0479095
41	0xbeb5f004	-0.3553468
42	0xbd29f4d0	-0.041493237
43	0xbe8b2c4e	-0.2718224
44	0xbec68cee	-0.38779396
45	0x3ddac830	0.10682714
46	0x3ed9a47a	0.42508298
47	0x3eae0f72	0.3399616
48	0x3eb7766e	0.35832542
49	0xbdd45590	-0.10367882
50	0xbea14afe	-0.31502527
51	0x3d8814b0	0.06644571
52	0xbe9c5fec	-0.30541933
53	0xbe27e3fc	-0.16395563
54	0x3ec765b6	0.38944787
55	0x3e0d14a4	0.13777405
56	0xbe26f018	-0.16302526
57	0xbdef1d80	-0.116755486
58	0x3ef9e732	0.488092
59	0x3cc80da0	0.02442056
60	0x3cecce80	0.02890706
61	0x3efd0cc8	0.49423814
62	0x3e8a5798	0.27019954
63	0xbe000ca8	-0.12504828
64	0x3ae31800	0.0017325878
65	0x3ed245f6	0.41069
66	0x3e153e2c	0.14574498
67	0x3ee9c8f2	0.45661122
68	0x3d3770b0	0.0447852
69	0x3e9e8fe4	0.30969155
70	0xbe997b82	-0.2997704
71	0xbe4b670c	-0.19863528
72	0xbee2e6d6	-0.4431674
73	0xbe4425b0	-0.19155002
74	0xbdb2c870	-0.08729637
75	0xbd8bcf78	-0.06826681
76	0xbecbd2c0	-0.39809227
77	0xbeafc78c	-0.3433193
78	0xbe6406f8	-0.22268283
79	0xbedcdcc2	-0.43137175
80	0xbe9b2dd8	-0.30308414
81	0xbda6aa10	-0.081379056
82	0xbeb37be4	-0.3505546
83	0x3e881eda	0.26586038
84	0x3eccea20	0.40022373
85	0x3ea632f6	0.32460755
86	0xbea8d7dc	-0.32977188
87	0xbed59b0e	-0.4171986
88	0xbe8a5988	-0.27021432
89	0xbedc2856	-0.42999524
90	0x3eeab99e	0.4584474
91	0x3deb0920	0.1147635
92	0xbdb3ff30	-0.087889075
93	0xbe91e63e	-0.28495973
94	0x3e84ffb2	0.2597633
95	0x3ebe35e6	0.37150496
96	0xbb218700	-0.0024647117
97	0xbebe29e0	-0.37141323
98	0xbeb581c4	-0.35450566
99	0xbeb567a2	-0.35430628
100	0x3e9c4332	0.30520016
101	0xbe8df70a	-0.27727538
102	0xbeae80b0	-0.34082556
103	0x3e4e4334	0.20142823
104	0xbdb06d78	-0.086146295
105	0xbed827f0	-0.4221797
106	0x3e6d0dac	0.23149747
107	0x3ed90d68	0.4239304
108	0xbe58269c	-0.21108478
109	0xbee3aeb2	-0.4446922
110	0xbdf02500	-0.11725807
111	0xbee6f32a	-0.45107394
112	0xbeca0d24	-0.3946315
113	0x3e7f1988	0.24912083
114	0x3efa52e2	0.4889136
115	0x3ed4db9c	0.415738
116	0x3ee099d2	0.43867356
117	0xbef636fe	-0.4808883
118	0xbe2192f4	-0.15778714
119	0x3e462940	0.19351673
120	0x3e4d663c	0.2005853
121	0xbe6fe4d0	-0.23427129
122	0x3e4068e0	0.18790007
123	0xbcee1000	-0.029060364
124	0xbd81e4a8	-0.06342441
125	0xbe9a3212	-0.30116326
126	0x3e53cfd0	0.20684743
127	0x3e94d0b2	0.29065472

net.0.bias f4 [32]
0	0x3ea1dd24	0.3161403
1	0xbeaa0caa	-0.33212787
2	0xbe48b83c	-0.1960153
3	0x3c07da00	0.008291721
4	0xbe0160bc	-0.12634557
5	0xbed52af2	-0.41634327
6	0x3dbeea08	0.09321982
7	0xbe98a494	-0.29813063
8	0x3e9507f8	0.29107642
9	0xbeea0ac0	-0.45711327
10	0x3ea3ae70	0.31969023
11	0xbd40d630	-0.047079265
12	0x3e210550	0.15724683
13	0xbed44096	-0.41455525
14	0x3ea5c16a	0.32374126
15	0x3abb2200	0.00142771
16	0xbe1c9ebc	-0.15294927
17	0xbefa9f96	-0.4894988
18	0x3ee59b30	0.4484496
19	0x3e97d9a2	0.29658228
20	0x3e5f6d7c	0.21819109
21	0xbe8dd032	-0.27697903
22	0x3d98c398	0.074591815
23	0x3e59ef80	0.21282768
24	0xbc46f040	-0.012142241
25	0x3da29518	0.079385936
26	0xbecd2392	-0.400662
27	0xbe97f524	-0.29679215
28	0xbe61e664	-0.22060543
29	0x3ed8761c	0.4227761
30	0x36aa0000	5.066395e-06
31	0x3d6fec50	0.058574975

net.2.weight f4 [1, 32]
0	0xbdea85ce	-0.114513025
1	0x3cd6acf8	0.026205525
2	0x3e185c33	0.14878921
3	0x3e01e42d	0.12684698
4	0x3d44ba10	0.048029006
5	0x3cdb2a20	0.026753485
6	0xbc70f6f0	-0.014707312
7	0xbd3e9b50	-0.046534836
8	0x3e0ee3e1	0.13954116
9	0xbd1065d0	-0.035253346
10	0x3b467f40	0.003028825
11	0xbde8ac0b	-0.113609396
12	0xbd635634	-0.05550213
13	0x3d942622	0.07233836
14	0x3e0b96bd	0.13631721
15	0x3dd40312	0.10352148
16	0xbd1a75dc	-0.037710056
17	0x3dd91392	0.10599436
18	0xbd9bf871	-0.07615746
19	0xbe1efba7	-0.15525685
20	0x3dd7bdc2	0.1053424
21	0x3daf350a	0.08555038
22	0x3dda889a	0.10670586
23	0x3c906700	0.01762724
24	0xbe1e2322	-0.1544309
25	0xbdd55512	-0.104166165
26	0x3e2ac1bd	0.16675468
27	0xbe08d4a2	-0.13362363
28	0xbe27f5e7	-0.16402398
29	0x3dc39c8a	0.09551342
30	0x3d8bb96e	0.06822477
31	0x3e2d7bed	0.16941805
